wakeword/neuralnet/optimized_wakeword.pt (torch, 356903 bytes, 7 tensors)

weight f4 [40]
1.0486277 0.9961756 0.98417926 0.9818705 1.0058011 0.99362886 1.0053967 0.9970673
0.9999137 1.0002521 0.9902533 1.0067829 0.99783427 1.012817 1.0263989 1.039264
1.0228916 1.001398 1.0145249 1.0150797 1.0132829 1.026917 1.0351061 1.0126083
1.0309699 1.0109125 1.0090173 1.0179384 0.99587417 1.0133445 1.0252637 1.0164483
1.0162834 1.0080143 1.0166974 1.0248009 1.0228572 1.0219849 1.0318741 1.0397166
00000000: 6f39 863f 5d05 7f3f 2cf3 7b3f dd5b 7b3f
00000010: 17be 803f 765e 7e3f d7b0 803f cd3f 7f3f
00000020: 58fa 7f3f 4308 803f 3e81 7d3f 43de 803f
00000030: 1172 7f3f fda3 813f 0a61 833f 9a06 853f
00000040: 1dee 823f cf2d 803f f4db 813f 22ee 813f
00000050: 41b3 813f 0472 833f 5b7e 843f 269d 813f
00000060: d2f6 833f 9565 813f 7b27 813f ce4b 823f
00000070: 9cf1 7e3f 46b5 813f d73b 833f fa1a 823f
00000080: 9315 823f 9d06 813f 2423 823f ad2c 833f
00000090: fcec 823f 67d0 823f 7314 843f 6f15 853f

bias f4 [40]
-0.0010172428 -0.0012731482 -0.021635298 -0.012179684 -0.004109804 -0.0044944156 -0.008101316 -0.019624388
0.0013979954 -0.003948649 0.013775395 0.0014755543 0.0050122724 0.0029559608 -0.00010136949 0.0034852675
-0.0013119132 -0.0030687493 0.0002742293 0.008162318 0.0055506793 -0.00065651035 5.6899276e-05 -0.0043219225
-8.905429e-06 0.002687516 -0.0067197084 0.0015925383 0.013950107 0.0026810074 0.0015462392 0.008071422
0.026743693 0.0039610993 -0.00070215453 0.0031905505 -0.0025545652 0.0053161625 0.0033951846 0.001174396
00000000: 0155 85ba c4df a6ba 823c b1bc 4c8d 47bc
00000010: 89ab 86bb e445 93bb 62bb 04bc 53c3 a0bc
00000020: f13c b73a ab63 81bb 32b2 613c 6367 c13a
00000030: fd3d a43b cbb8 413b 5596 d4b8 1669 643b
00000040: 81f4 abba 121d 49bb 6fc6 8f39 3ebb 053c
00000050: 79e2 b53b aa19 2cba 22a7 6e38 ea9e 8dbb
00000060: 8768 15b7 0921 303b 0031 dcbb b8bc d03a
00000070: fd8e 643c d7b3 2f3b 2eab ca3a ff3d 043c
00000080: 9715 db3c 1ccc 813b cb10 38ba 8e18 513b
00000090: 7e6a 27bb 3433 ae3b bf81 5e3b 31ee 993a

weight_ih_l0 f4 [512, 40]
-0.049336873 -0.015997542 -0.0152235385 0.0340175 -0.109311715 0.058147024 -0.019173557 0.044693116
0.0088150725 -0.0069216876 0.028747274 0.016628237 0.045148354 -0.017462766 0.0030772137 0.01673684
0.03290762 0.030428076 0.096199475 0.0427524 -0.010215677 -0.029299172 0.011218029 -0.020939555
0.0018278568 0.019981766 0.057617445 0.061720215 -0.046783563 0.07081656 0.04026622 0.115626454
0.071203046 -0.037169814 -0.047127534 -0.023780687 0.0942335 0.0014774661 0.07705733 -0.018101955
0.0704375 -0.036241654 0.07180875 -0.008671659 -0.03696089 0.040050108 -0.057755448 0.020838168
-0.029499872 0.0037027323 -0.07033447 -0.03251824 0.06876648 -0.007973887 0.11438615 0.0921716
0.008239922 -0.06447521 0.06614649 0.05181755 -0.036710896 0.07420959 0.07086914 0.078571334
-0.030164829 9.129223e-05 0.0218044 0.03792178 -0.04583444 -0.043352418 0.06609732 0.0040123756
0.064111106 0.011584571 0.028745474 0.019843932 0.033099726 0.050054204 -0.057780627 0.062143166
-0.1869277 -0.06074139 0.008731288 -0.026479041 0.041647058 -0.060911067 -0.096123114 0.05897566
-0.0057774982 0.0579344 0.03821813 -0.04914507 0.026982656 0.03845159 -0.05572773 -0.03121067
0.05355019 0.042955555 -0.020027854 -0.017980672 0.090540655 0.0081215985 0.066369645 0.07609115
-0.03400113 -0.05800735 0.09143201 0.019399744 0.065550484 0.02831513 0.043299656 0.07686111
0.08651381 -0.034009952 0.03700875 0.07601883 0.07443759 0.071735695 -0.050628237 -0.044367827
-0.101090774 0.02750771 0.097485945 -0.06055399 0.048427004 -0.04658971 -0.090495095 -0.022333821
0.047315832 0.08533726 -0.04654971 0.015787115 0.0863168 0.056911346 0.07466039 0.0766382
0.07183738 0.027219584 -0.043332458 -0.064327925 -0.02750901 0.0020659743 -0.035598766 0.034797467
0.044809606 -0.009644386 0.046442427 0.039622743 0.06428036 0.0672865 -0.016916279 0.0965754
0.0010494196 0.01223559 -0.0756378 -0.05175362 -0.042674743 -0.029723506 0.07046473 -0.02108788
-0.105395235 0.0387995 0.031022102 0.073263414 -0.028090749 0.018990776 -0.032304842 -0.008868564
-0.08069516 -0.036817376 -0.030262515 0.033348255 0.010880323 0.020934869 0.11791589 0.11879871
0.075311884 -0.00037939052 -0.0553345 0.07785208 -0.0104942005 0.008961281 -0.058887452 -0.017147925
-0.045923524 0.088186145 -0.061575722 -0.051291395 -0.0008993381 -0.03957727 0.041831423 -0.024467368
-0.036528397 0.01684697 0.072833866 -0.050804533 0.05483149 0.073440626 0.09759916 -0.052348517
-0.013733278 -0.05803534 0.07539421 -0.03289653 0.04824764 0.005292404 0.011043324 -0.013231173
0.006678247 0.03920738 0.009371681 0.029726723 -0.071943685 0.072288975 0.10691138 0.11219615
0.09013202 -0.06268724 -0.013851691 0.090444185 -0.04755913 0.102216266 -0.05204628 -0.056530237
0.054730058 -0.052611347 -0.005896233 0.07856779 0.0823243 0.091832936 -0.012532612 -0.056099225
0.09187313 -0.01571559 -0.032890387 0.03538653 -0.04602016 0.06729019 0.0704473 -0.055297084
-0.11504719 -0.008833935 0.039038364 0.009030415 -0.04050015 0.0063518086 -0.06923405 -0.061993904
-0.068598226 0.06607321 0.07275161 -0.025635894 0.0008951746 0.035690386 0.022634383 -0.02432573
00000000: 7615 4abd 470d 83bc 266c 79bc ef55 0b3d
00000010: d2de dfbd 932b 6e3d dd11 9dbc 2110 373d
00000020: 186d 103c 53cf e2bb 677f eb3c f137 883c
00000030: 7bed 383d 130e 8fbc 14ab 493b b31b 893c
00000040: 24ca 063d 4d44 f93c 3b04 c53d 241d 2f3d
00000050: a85f 27bc d104 f0bc d3cb 373c 6e89 abbc
00000060: b294 ef3a cdb0 a33c 4500 6c3d 56ce 7c3d
00000070: 1fa0 3fbd 4608 913d 31ee 243d 90cd ec3d
00000080: e7d2 913d 603f 18bd cd08 41bd b7cf c2bc
00000090: 7efd c03d 89a7 c13a 3cd0 9d3d 8d4a 94bc
000000a0: 8941 903d 2172 14bd 7710 933d 9313 0ebc
000000b0: 4d64 17bd 950b 243d fa90 6cbd ceb4 aa3c
000000c0: b7a9 f1bc 8aa9 723b 850b 90bd d931 05bd
000000d0: 71d5 8c3d e8a4 02bc 4943 ea3d 77c4 bc3d
000000e0: bd00 073c 940b 84bd d077 873d a43e 543d
000000f0: 2a5e 16bd 33fb 973d d723 913d 02ea a03d
00000100: 3b1c f7bc 2574 bf38 249f b23c de53 1b3d
00000110: e5bc 3bbd 4e92 31bd 085e 873d 3f7a 833b
00000120: af4c 833d 36cd 3d3c a17b eb3c be8f a23c
00000130: 9493 073d a305 4d3d 61ab 6cbd d589 7e3d
00000140: fa69 3fbe f7cb 78bd ad0d 0f3c 93ea d8bc
00000150: 1b96 2a3d e27d 79bd 32dc c4bd 7690 713d
00000160: 2b51 bdbb 9f4c 6d3d 9d8a 1c3d 574c 49bd
00000170: bb0a dd3c 6a7f 1d3d c342 64bd 85ad ffbc
00000180: 7257 5b3d 2af2 2f3d 7411 a4bc 344c 93bc
00000190: 616d b93d 7410 053c cfec 873d add5 9b3d
000001a0: c544 0bbd 1d99 6dbd b540 bb3d 36ec 9e3c
000001b0: 553f 863d 22f5 e73c fb5a 313d 5c69 9d3d
000001c0: 272e b13d 054e 0bbd 7d96 173d c3af 9b3d
000001d0: bc72 983d 2aea 923d 8e5f 4fbd 0abb 35bd
000001e0: ae08 cfbd d957 e13c b6a6 c73d 7607 78bd
000001f0: 655b 463d dad4 3ebd 7e55 b9bd 6bf5 b6bc
00000200: 3fce 413d 4dc5 ae3d e9aa 3ebd fb53 813c
00000210: ddc6 b03d df1b 693d 8ce7 983d 7df4 9c3d
00000220: 7a1f 933d 9bfb de3c 607d 31bd 5cbe 83bd
00000230: 935a e1bc 4c65 073b 03d0 11bd ca87 0e3d
00000240: 478a 373d 7d03 1ebc 6a3a 3e3d 754b 223d
00000250: 6ca5 833d 81cd 893d 0294 8abc 53c9 c53d
00000260: ae8c 893a c977 483c fee7 9abd 9bfb 53bd
00000270: b6cb 2ebd b67e f3bc d04f 903d 7dc0 acbc
00000280: 75d9 d7bd 39ec 1e3d 1022 fe3c 210b 963d
00000290: 921e e6bc 8b92 9b3c 1552 04bd 744d 11bc
000002a0: 8143 a5bd d1cd 16bd 18e9 f7bc 2e98 083d
000002b0: 6243 323c 9a7f ab3c e37d f13d bd4c f33d
000002c0: 1e3d 9a3d efe8 c6b9 6ea6 62bd e970 9f3d
000002d0: deef 2bbc 56d2 123c f833 71bd ce79 8cbc
000002e0: 4e1a 3cbd f09a b43d d336 7cbd ed16 52bd
000002f0: 8fc1 6bba c71b 22bd 6d57 2b3d ca6f c8bc
00000300: cd9e 15bd a802 8a3c ec29 953d 6a18 50bd
00000310: fc96 603d 0a68 963d 12e2 c73d 666b 56bd
00000320: 8b01 61bc 77b6 6dbd 4868 9a3d 83be 06bd
00000330: 519f 453d e76b ad3b 0fef 343c 90c7 58bc
00000340: 32d5 da3b eb97 203d ae8b 193c 7585 f33c
00000350: 3657 93bd 3e0c 943d 5bf4 da3d 18c7 e53d
00000360: 2397 b83d 2b62 80bd 34f2 62bc cd3a b93d
00000370: 5dcd 42bd c356 d13d 7b2e 55bd 408c 67bd
00000380: a02c 603d ff7e 57bd 3035 c1bb 26e8 a03d
00000390: a599 a83d e812 bc3d 9655 4dbc 4dc8 65bd
000003a0: fb27 bc3d fbbd 80bc 12b8 06bd 77f1 103d
000003b0: a37f 3cbd 70cf 893d ad46 903d 327f 62bd
000003c0: dc9d ebbd 35bc 10bc b1e6 1f3d 4ef4 133c
000003d0: 7ce3 25bd d522 d03b 95ca 8dbd 52ed 7dbd
000003e0: 3a7d 8cbd 6451 873d ccfe 943d 5e02 d2bc
000003f0: 27aa 6a3a 1530 123d be6b b93c c146 c7bc

weight_hh_l0 f4 [512, 128]
-0.09205628 -0.08359566 0.010458429 0.026815208 -0.013124821 -0.048926193 -0.03438926 0.07000562
0.05572012 0.07589113 -0.06537057 0.031447716 -0.04945276 0.093608 -0.0080526685 -0.0688295
0.02970505 0.006665004 -0.08620956 -0.034587037 0.0040705833 -0.060122196 -0.12955847 0.0664027
0.028153736 -0.040330257 -0.01863057 -0.08571838 -0.01355302 0.065700956 -0.058667395 0.0899914
0.010542657 -0.011845318 0.083843336 0.07569494 0.034025066 0.045436665 -0.012576733 -0.018271195
0.0034114483 -0.004088334 0.046926737 0.08586428 -0.060126085 -0.025939664 -0.057145864 0.0071727666
0.005539561 -0.035345633 -0.07022345 0.031521723 -0.07624641 0.022126602 0.036944572 -0.040978156
0.017710453 -0.0421706 -0.020871023 0.05903892 0.10635533 0.10123867 0.00060084095 -0.018609704
0.0003865455 0.009323643 0.029727714 0.04513614 -0.057015546 -0.037275232 0.03991378 0.007934549
-0.060795873 -0.044249047 0.082832254 0.100769706 -0.02228524 0.03228093 -0.08908734 -0.010593802
-0.055162996 -0.064236596 -0.020794922 0.09176568 -0.042739697 -0.05036849 0.011084779 -0.04014886
-0.04530544 -0.07806819 -0.011601842 -0.059367802 -0.027549077 0.023839882 -0.037210573 0.010957389
-0.07810751 0.003301606 0.041863926 0.085297816 0.018612685 0.045690574 -0.05552365 0.012743515
-0.045805443 -0.10243443 0.0554056 -0.046161044 0.007881224 0.04883237 0.09793944 0.008394888
-0.042066876 -0.0058726068 -0.0870844 -0.041228376 -0.050535265 0.03596984 -0.053616308 0.06968333
0.0116994865 -0.066932164 -0.08213116 0.06380357 -0.047562502 0.06597211 -0.060354266 0.0364003
-0.05727498 -0.05729488 -0.03971035 0.011934589 -0.015777357 -0.038227763 0.061821662 -0.023133697
0.058649115 0.08246226 0.02215458 -0.07328565 0.06182371 -0.013317869 0.07072931 0.065261595
0.03590266 -0.005379927 0.060589127 0.08825828 0.03364694 0.06952405 0.06122235 -0.030497188
0.007586156 0.06344533 -0.020836508 -0.04174792 0.05485348 -0.0771539 -0.02547618 -0.03337375
0.0813024 0.049513366 0.07124569 -0.023457862 0.022533674 -0.0048898878 -0.014140229 -0.052094113
-0.030920085 -0.08505634 0.024733458 0.045942426 0.07459515 -0.031134354 -0.023518896 0.07572145
0.07518792 0.05081138 0.0785184 0.02739922 -0.07008239 -0.06175475 -0.010648519 -0.058094926
-0.0009065854 0.013245858 0.040955637 0.013054445 0.0734986 -0.04917634 0.029432796 1.5873396e-05
-0.025695976 0.058613893 0.083624385 -0.07577852 0.0059289807 -0.05901457 0.06863664 0.07091452
0.06603679 0.056988377 -0.039331418 -0.022287779 -0.034760784 0.030398067 -0.06163569 -0.005158306
0.025360776 0.03763291 -0.03988764 -0.055885416 0.04856096 0.014869661 -0.06444711 -0.06007403
-0.019160584 -0.00089225214 0.015578195 -0.10192029 0.048605576 0.0375578 0.03072754 -0.050938413
-0.075209714 0.060807526 0.045016352 0.09314404 -0.036023512 0.013726421 -0.026824057 -0.04244046
0.09976286 -0.09723564 -0.0048733703 0.08236294 -0.056002166 0.056512307 -0.012419358 0.024801742
-0.022299157 0.017435012 0.015623488 0.033894736 -0.002660746 0.039432377 -0.03880156 -0.03042235
-0.098820865 -0.00022995206 -0.0040963795 -0.006408371 -0.021893611 0.011290663 -0.09290831 0.043618757
00000000: 0188 bcbd 3434 abbd d559 2b3c 91ab db3c
00000010: 7d09 57bc d566 48bd c1db 0cbd 1b5f 8f3d
00000020: c83a 643d cf6c 9b3d 01e1 85bd 52cf 003d
00000030: fa8e 4abd 8db5 bf3d 57ef 03bc 7bf6 8cbd
00000040: 0158 f33c 1b66 da3b a38e b0bd 23ab 0dbd
00000050: 8762 853b b142 76bd faaa 04be 24fe 873d
00000060: aaa2 e63c 5731 25bd 239f 98bc 1e8d afbd
00000070: 7c0d 5ebc 398e 863d 394d 70bd 694d b83d
00000080: 1cbb 2c3c dd12 42bc 0eb6 ab3d f305 9b3d
00000090: de5d 0b3d cc1b 3a3d a40e 4ebc 79ad 95bc
000000a0: 9b92 5f3b 6ef7 85bb 4036 403d 9dd9 af3d
000000b0: c546 76bd 6b7f d4bc c811 6abd 8709 eb3b
000000c0: 3585 b53b 95c6 10bd 50d1 8fbd ec1c 013d
000000d0: 1427 9cbd d942 b53c 3153 173d b6d8 27bd
000000e0: 8315 913c 14bb 2cbd b5f9 aabc cbd2 713d
000000f0: d3d0 d93d 3856 cf3d c181 1d3a 6173 98bc
00000100: 42a9 ca39 31c2 183c 8987 f33c ace0 383d
00000110: 2289 69bd eaad 18bd a27c 233d e9ff 013c
00000120: 1805 79bd 7d3e 35bd f5a3 a93d 5960 ce3d
00000130: 898f b6bc 0239 043d 6c73 b6bd a091 2dbc
00000140: 98f2 61bd 7a8e 83bd 1d5a aabc a5ef bb3d
00000150: d20f 2fbd 314f 4ebd ef9c 353c 2273 24bd
00000160: 3292 39bd 37e2 9fbd a715 3ebc a72b 73bd
00000170: 9aae e1bc db4b c33c 1d6a 18bd 9f86 333c
00000180: d5f6 9fbd c25f 583b 8279 2b3d 9fb0 ae3d
00000190: a179 983c 0a26 3b3d c46c 63bd 2dca 503c
000001a0: 7d9e 3bbd 24c9 d1bd fcf0 623d 5d13 3dbd
000001b0: 4020 013c 7404 483d 7994 c83d b68a 093c
000001c0: 514e 2cbd ff6e c0bb 4e59 b2bd 16df 28bd
000001d0: 11fe 4ebd 1c55 133d c69c 5bbd 22b6 8e3d
000001e0: 34af 3f3c bb13 89bd 6234 a8bd 72ab 823d
000001f0: e6d0 42bd 631c 873d 0936 77bd 7b18 153d
00000200: 2b99 6abd 09ae 6abd 52a7 22bd 4b89 433c
00000210: 843f 81bc b794 1cbd b638 7d3d e182 bdbc
00000220: 0e3a 703d f9e1 a83d 867d b53c c916 96bd
00000230: dc3a 7d3d 3133 5abc 87da 903d dfa7 853d
00000240: ab0e 133d 194a b0bb 4e2c 783d c2c0 b43d
00000250: 60d1 093d a062 8e3d 49c4 7a3d 3dd5 f9bc
00000260: 4a95 f83b a0ef 813d 53b1 aabc deff 2abd
00000270: 0bae 603d dd02 9ebd 6cb3 d0bc eab2 08bd
00000280: df81 a63d 87ce 4a3d 43e9 913d b42a c0bc
00000290: 8a98 b83c 5a3b a0bb 6bac 67bc a360 55bd
000002a0: 1e4c fdbc 0532 aebd d29d ca3c 202e 3c3d
000002b0: 58c5 983d 790d ffbc b3aa c0bc d913 9b3d
000002c0: 20fc 993d 981f 503d 41ce a03d 5474 e03c
000002d0: 5b87 8fbd 8cf2 7cbd 2077 2ebc f2f4 6dbd
000002e0: eba7 6dba 2805 593c 19c1 273d 50e2 553c
000002f0: 6f86 963d 216d 49bd 0c1d f13c dc27 8537
00000300: 5e80 d2bc 1f15 703d 4343 ab3d c531 9bbd
00000310: e547 c23b 43b9 71bd 5e91 8c3d a23b 913d
00000320: 4c3e 873d a56c 693d fb19 21bd dc94 b6bc
00000330: 5361 0ebd 5e05 f93c b575 7cbd 0207 a9bb
00000340: 67c1 cf3c f724 1a3d 3961 23bd 1be8 64bd
00000350: dbe7 463d e19f 733c d9fc 83bd 3010 76bd
00000360: a8f6 9cbc 07e6 69ba b03b 7f3c 96bb d0bd
00000370: a416 473d 35d6 193d 52b8 fb3c cca4 50bd
00000380: 8d07 9abd 5011 793d 1163 383d 4dc2 be3d
00000390: 648d 13bd c8e4 603c 20be dbbc 0cd6 2dbd
000003a0: 7850 cc3d 7b23 c7bd cbb0 9fbb e7ad a83d
000003b0: 8762 65bd 7379 673d 907a 4bbc 062d cb3c
000003c0: b9ac b6bc dfd3 8e3c a9f9 7f3c 35d5 0a3d
000003d0: e95f 2ebb d883 213d 62ee 1ebd 4b38 f9bc
000003e0: 9862 cabd 491f 71b9 ec3a 86bb 50fd d1bb
000003f0: 3b5a b3bc 79fc 383c b646 bebd 95a9 323d

bias_ih_l0 f4 [512]
0.032110646 0.023035873 -0.036059126 -0.0022921686 -0.071677275 0.01979957 -0.021546353 0.053995125
-0.050561335 0.057020057 0.09243065 -0.037081253 0.04961467 0.023786897 -0.06861326 -0.07455344
-0.044053573 -0.05164989 0.035170104 -0.036633704 -0.0117481835 -0.056489676 0.04222781 0.08328807
-0.0127159245 -0.017994909 -0.019828988 0.032707598 -0.058636747 0.07849407 -0.05218859 -0.024377974
0.08743158 0.0069110277 0.016427353 -0.06197331 0.049709167 -0.067986935 0.013222925 0.07475524
0.008008458 0.006459411 -0.0093704825 0.05657949 0.111939214 0.035683416 -0.033323023 0.08207048
-0.050624702 -0.045368847 -0.066630274 0.074234 -0.0077790148 -0.043611046 0.09532768 0.022932924
0.0787881 0.07035371 -0.0001234393 0.019572271 -0.03392324 0.07912936 0.08576043 0.021824166
-0.08836375 0.09014213 -0.02460914 0.024091825 0.08098648 0.039609913 0.061580185 0.05064181
0.08075824 0.045418184 0.039199173 -0.039404005 -0.024377052 0.07866586 -0.0111938175 0.094528064
-0.0040557142 -0.066249706 0.06923949 -0.039779283 0.055458542 0.06583768 0.022235116 -0.06534131
-0.061278407 -0.08004855 0.082728855 0.010349813 0.014838143 0.0036629345 -0.035569515 0.016936302
-0.036675654 0.013392645 0.027960543 -0.037596587 0.10782472 -0.086311154 0.045547552 0.01899719
0.04558433 0.053839095 0.022559367 0.09029768 0.055494234 0.05861612 -0.07686364 0.046035264
-0.03226338 0.013331965 0.08953857 0.029463522 -0.035147343 0.009804038 -0.023892295 0.05474212
0.05225069 0.005164056 -0.010479257 0.04677354 0.0042060944 -0.03061563 -0.035972044 -0.0060402127
0.073455244 0.06652704 -0.07247019 0.027195841 -0.009639102 0.07897757 -0.0136219645 0.08403176
0.072881244 -0.022786662 -0.016891863 0.100821584 0.06628481 -0.058001094 0.012795627 0.08693396
-0.04003433 0.07376687 0.05973165 0.06570973 0.05878394 -0.0067534647 0.094044626 -0.04338433
0.08749701 -0.01241152 -0.05724593 0.06888759 -0.045861125 -0.052645605 0.07169578 0.036061797
-0.044126067 -0.019139841 0.05757943 0.06576476 0.08061118 0.09156279 -0.0006768249 0.0030112055
-0.08084635 0.016450865 0.08429676 -0.008996849 0.016734617 0.006087163 0.09411943 0.044680607
0.019076942 -0.01571495 0.037770413 -0.046724997 0.0038914573 -0.05649022 0.052135117 0.03264538
0.05529198 0.05879417 0.09390592 0.05763318 0.05962737 0.057552353 -0.07457232 0.17104769
-0.038216602 -0.05462707 0.02981952 0.06378038 -0.030464146 0.026997682 -0.052091576 0.035608802
0.0065887817 0.08202458 -0.069404535 0.048392963 0.0038362509 -0.045044515 -0.032083075 0.106208876
0.08810872 -0.050352868 0.008032014 -0.0023301726 0.10429377 0.04476738 0.09132409 -0.04160762
-0.022679573 -0.043024328 0.032901097 0.041192893 0.031902526 0.03491651 0.032068893 0.023647139
0.053872302 0.005865889 0.05581794 0.096222185 -0.017831748 0.048645128 -0.012460136 0.024202475
-0.038235977 -0.048461698 0.040594637 0.062467065 -0.064178504 0.054501057 0.044542227 0.02235921
0.015361271 -0.060058836 -0.021411369 -0.051359143 0.005694923 -0.027881186 0.045182265 0.057695754
-0.03788747 0.047356322 0.07097323 0.075885504 -0.010686172 0.006216309 0.068463475 -0.015411636
00000000: 7486 033d bab5 bc3c bcb2 13bd 3538 16bb
00000010: 89cb 92bd b532 a23c fa81 b0bc fe29 5d3d
00000020: 6719 4fbd dd8d 693d 484c bd3d 83e2 17bd
00000030: c138 4b3d bddc c23c 1c85 8cbd 79af 98bd
00000040: 8571 34bd d68e 53bd 870e 103d 390d 16bd
00000050: 747b 40bc b861 67bd 11f7 2c3d f092 aa3d
00000060: 7456 50bc 0f6a 93bc 6770 a2bc 67f8 053d
00000070: 162d 70bd 80c1 a03d b4c3 55bd 51b4 c7bc
00000080: 540f b33d e775 e23b a892 863c bad7 7dbd
00000090: d79b 4b3d bc3c 8bbd f8a4 583c 4619 993d
000000a0: e835 033c 77a9 d33b a786 19bc e5bf 673d
000000b0: 6340 e53d c628 123d b97d 08bd 9114 a83d
000000c0: d95b 4fbd afd4 39bd 7475 88bd ff07 983d
000000d0: 1be7 febb 7fa1 32bd 293b c33d d4dd bb3c
000000e0: a85b a13d 9b15 903d 7c6f 01b9 0756 a03c
000000f0: 18f3 0abd 930e a23d 2aa3 af3d 98c8 b23c
00000100: 0ef8 b4bd 709c b83d 1b99 c9bc 385c c53c
00000110: 3ddc a53d 013e 223d 813b 7c3d c96d 4f3d
00000120: 9364 a53d 6b08 3a3d 508f 203d 1866 21bd
00000130: 62b2 c7bc 911b a13d 4666 37bc ee97 c13d
00000140: cce5 84bb edad 87bd 6fcd 8d3d 9aef 22bd
00000150: 7f28 633d e8d5 863d 6b26 b63c aad1 85bd
00000160: 11ff 7abd 7ff0 a3bd bf6d a93d 4392 293c
00000170: af1b 733c d80d 703b 57b1 11bd 00be 8a3c
00000180: 3639 16bd d36c 5b3c 820d e53c e1fe 19bd
00000190: 35d3 dc3d e7c3 b0bd 1290 3a3d ff9f 9b3c
000001a0: a2b6 3a3d 6286 5c3d 6cce b83c fded b83d
000001b0: ec4d 633d 7517 703d af6a 9dbd 798f 3c3d
000001c0: 9b26 04bd 506e 5a3c ff5f b73d 7c5d f13c
000001d0: a9f6 0fbd 1ea1 203c c6b9 c3bc 4639 603d
000001e0: d204 563d 3e37 a93b 31b1 2bbc 9d95 3f3d
000001f0: 47d3 893b a1cd fabc 6c57 13bd faec c5bb
00000200: b46f 963d 543f 883d 406b 94bd d0c9 de3c
00000210: 53ed 1dbc febe a13d a92e 5fbc d818 ac3d
00000220: c342 953d 18ab babc ce60 8abc 8c7b ce3d
00000230: 55c0 873d 8e92 6dbd c0a4 513c 6f0a b23d
00000240: 0afb 23bd 1613 973d 2da9 743d d392 863d
00000250: 6ec7 703d 2b4c ddbb 789a c03d c4b3 31bd
00000260: a231 b33d b059 4bbc b57a 6abd f014 8d3d
00000270: e0d8 3bbd eba2 57bd 3dd5 923d 89b5 133d
00000280: 89bd 34bd 28cb 9cbc 69d8 6b3d adaf 863d
00000290: 7917 a53d 4685 bb3d f36c 31ba a557 453b
000002a0: c592 a5bd f7c3 863c c8a3 ac3d 8567 13bc
000002b0: 0917 893c d376 c73b b0c1 c03d 0303 373d
000002c0: 3f47 9c3c a4bc 80bc 26b5 1a3d b662 3fbd
000002d0: d207 7f3b 4a62 67bd a28b 553d 29b7 053d
000002e0: d879 623d 28d2 703d bf51 c03d c510 6c3d
000002f0: d43b 743d 04bc 6b3d 5fb9 98bd 2027 2f3e
00000300: 0389 1cbd a2c0 5fbd 1148 f43c 4a9f 823d
00000310: f28f f9bc 3e2a dd3c fa5d 55bd 89da 113d
00000320: b5e6 d73b 81fc a73d f723 8ebd b337 463d
00000330: 9c69 7b3b 9980 38bd 8b69 03bd 0a84 d93d
00000340: 5872 b43d cf3e 4ebd b598 033c cfb5 18bb
00000350: f997 d53d 005e 373d 2008 bb3d c06c 2abd
00000360: 83ca b9bc 473a 30bd 4dc3 063d e1b9 283d
00000370: 39ac 023d 9d04 0f3d ac5a 033d a5b7 c13c
00000380: 34a9 5c3d a536 c03b 5aa1 643d 2310 c53d
00000390: e313 92bc 1d40 473d 9925 4cbc 4544 c63c
000003a0: 549d 1cbd c67f 46bd 9046 263d 77dd 7f3d
000003b0: 0570 83bd 803c 5f3d e971 363d a92a b73c
000003c0: d7ad 7b3c 4100 76bd e566 afbc f75d 52bd
000003d0: 7a9c ba3b 1667 e4bc 0a11 393d 6252 6c3d
000003e0: e42f 1bbd b4f8 413d 6a5a 913d dc69 9b3d
000003f0: 0e15 2fbc 2eb2 cb3b 9436 8c3d 1681 7cbc

bias_hh_l0 f4 [512]
0.04524346 -0.041343242 0.06642568 0.00020998692 0.08530902 -0.052860048 -0.08036514 -0.039973684
0.06829221 -0.047582623 -0.056643497 -0.020235283 0.068072945 0.047344033 0.07307459 -0.006551292
0.107406236 0.00049092446 -0.03877787 -0.05899336 -0.030959712 0.08766503 -0.06546439 0.084525324
-0.0075587993 0.102481484 -0.022705328 -0.020102665 0.040153466 0.09823567 0.08775804 0.047312163
-0.04925735 -0.010937475 0.0015360565 0.087983064 -0.078743435 -0.03608845 0.07173406 -0.010890381
-0.0376926 0.026034627 -0.034920707 -0.02540689 0.10025001 -0.04090316 -0.035173558 0.020048937
0.017022103 -0.004889511 0.02437942 0.08745273 -0.0466945 -0.023052882 -0.00037877678 0.05205585
0.06605915 0.1379077 0.027691426 0.032007817 0.048174176 0.08588176 0.08962629 0.047759686
-0.084256455 -0.029812703 0.008715228 -0.052897573 0.0551195 -0.018958883 -0.0033811235 -0.026578302
0.05967359 0.026096584 -0.029050821 0.02721303 -0.037891977 0.065777846 -0.057763185 0.09900721
0.10229753 -0.06377453 -0.0234677 -0.027032496 -0.02091508 0.06914078 -0.057472095 -0.037119795
0.07253649 -0.044311967 -0.044116788 0.028999187 -0.0648985 -0.018233577 0.038249683 -0.025723727
-0.06856566 0.082173266 -0.026940854 0.07909197 0.07907002 -0.070527405 0.0055682645 0.026440566
0.09387517 0.020592052 0.0550785 -0.009282723 0.098102465 0.06378115 0.051229704 -0.018288655
-0.049310524 0.016008032 -0.053473145 0.014100824 0.049101386 0.050037455 0.020921353 0.0028712742
-0.049520675 -0.05014621 0.031324685 0.017384239 0.057175104 0.04515517 -0.04202395 -0.04612382
0.053671073 0.0018155756 0.010680671 -0.005702294 0.021871826 0.08840674 0.058703285 0.046265908
-0.0436237 -0.037028983 -0.015909225 0.07188241 0.06662932 0.0976283 0.061749727 -0.0005400535
0.10534259 -0.03806326 0.08547465 0.007688368 0.013923186 0.026897075 0.0016882557 0.073075205
0.1029311 -0.037570804 0.03632385 -0.00832425 0.080554105 -0.012694533 0.08172377 -0.02416543
0.07166261 0.027468644 0.002442211 -0.0031815271 0.084944755 -0.05872852 0.09150643 -0.04669449
0.036017053 0.018890657 0.024737269 0.062741436 0.10982041 -0.051615644 0.012581574 -0.035918456
0.09796579 0.079115115 -0.035843693 0.078272045 -0.086834885 -0.065650225 0.048009094 0.029725183
-0.059174106 0.021906292 0.020571554 0.028732574 0.019295916 0.0122145815 -0.057257313 0.10009844
-0.06680383 0.0055467742 -0.0009897245 0.10549994 0.084625356 -0.019395662 0.07397639 -0.06286038
0.13617834 -0.06997486 -0.03195412 -0.026098056 0.025583314 -0.036651973 0.012967923 0.09458581
0.07159244 0.08173174 -0.05712219 -0.031385906 0.019097019 0.062815234 -0.03465437 0.10378503
-0.045258112 -0.0383525 0.113875516 0.059269864 0.027773308 0.015208726 -0.043206837 0.08268391
0.024040613 0.009984595 0.07482402 -0.017331788 -0.017211545 0.051435515 0.013611549 -0.07118305
-0.06280667 -0.0031790878 0.07892392 0.084472775 0.059657205 -0.010742871 0.091299884 0.047899522
-0.01679235 -0.029759793 0.06753488 0.050992396 0.08206787 0.0049852747 0.10343945 -0.008911432
-0.063591994 0.03348032 -0.011194273 0.010199396 0.015974212 0.062390164 0.021281717 -0.053686135
00000000: 3551 393d 8857 29bd 300a 883d ef2f 5c39
00000010: 7fb6 ae3d c783 58bd 7b96 a4bd 72bb 23bd
00000020: c9dc 8b3d ffe5 42bd 0303 68bd 77c4 a5bc
00000030: d469 8b3d d1eb 413d 21a8 953d 38ac d6bb
00000040: cdf7 db3d 62b1 003a 8bd5 1ebd 05a3 71bd
00000050: 399f fdbc b989 b33d 3212 86bd 9d1b ad3d
00000060: ceaf f7bb d0e1 d13d 8600 babc 58ae a4bc
00000070: f677 243d c82f c93d 7dba b33d 66ca 413d
00000080: 13c2 49bd 1833 33bc 8155 c93a 7730 b43d
00000090: 3d44 a1bd 7cd1 13bd 4fe9 923d 926d 32bc
000000a0: 8e63 1abd 9246 d53c 0409 0fbd 1c22 d0bc
000000b0: e14f cd3d 128a 27bd 2612 10bd ab3d a43c
000000c0: f071 8b3c 3138 a0bb 59b7 c73c 6b1a b33d
000000d0: bb42 3fbd 66d9 bcbc 8f96 c6b9 8438 553d
000000e0: 054a 873d ad37 0d3e 21d9 e23c a11a 033d
000000f0: 4952 453d c7e2 af3d fd8d b73d a99f 433d
00000100: a68e acbd c539 f4bc 51ca 0e3c 20ab 58bd
00000110: fcc4 613d a94f 9bbc d795 5dbb bdba d9bc
00000120: 4b6c 743d 81c8 d53c fdfb edbc dced de3c
00000130: 9e34 1bbd 89b6 863d 1799 6cbd 4bc4 ca3d
00000140: 5e81 d13d 399c 82bd 563f c0bc 4173 ddbc
00000150: 1a56 abbc ae99 8d3d dc67 6bbd ed0a 18bd
00000160: 038e 943d 7780 35bd ceb3 34bd b48f ed3c
00000170: 81e9 84bd 955e 95bc b3ab 1c3d 91ba d2bc
00000180: 276c 8cbd 754a a83d 11b3 dcbc f9fa a13d
00000190: 76ef a13d ac70 90bd fd75 b63b e399 d83c
000001a0: a041 c03d aab0 a83c fe99 613d 9016 18bc
000001b0: f2e9 c83d b19f 823d 3dd6 513d 17d2 95bc
000001c0: d5f9 49bd 4723 833c a806 5bbd 2407 673c
000001d0: 891e 493d 13f4 4c3d 4263 ab3c fd2b 3c3b
000001e0: 31d6 4abd 1d66 4dbd 504e 003d 6469 8e3c
000001f0: 7130 6a3d a1f4 383d 4e21 2cbd 55ec 3cbd
00000200: 33d6 5b3d 9cf8 ed3a fbfd 2e3c 4fda babb
00000210: 8b2c b33c 980e b53d db72 703d 5281 3d3d
00000220: c4ae 32bd b4ab 17bd 1054 82bc 1637 933d
00000230: f474 883d 59f1 c73d 48ed 7c3d 6092 0dba
00000240: dbbd d73d 39e8 1bbd 550d af3d b5ee fb3b
00000250: 131e 643c 4157 dc3c 7648 dd3a 74a8 953d
00000260: 8acd d23d d8e3 19bd 51c8 143d 6f62 08bc
00000270: 8df9 a43d bbfc 4fbc cb5e a73d 94f6 c5bc
00000280: d9c3 923d ec05 e13c 800d 203b 2b81 50bb
00000290: 84f7 ad3d 518d 70bd b967 bb3d b942 3fbd
000002a0: 9e86 133d 94c0 9a3c d0a5 ca3c 957e 803d
000002b0: 86e9 e03d ed6a 53bd f222 4e3c 3b1f 13bd
000002c0: 4aa2 c83d 1b07 a23d d6d0 12bd 184d a03d
000002d0: 7dd6 b1bd a073 86bd 2fa5 443d 3a82 f33c
000002e0: 8c60 72bd d374 b33c ad85 a83c 9360 eb3c
000002f0: 7812 9e3c ab1f 483c a586 6abd 6900 cd3d
00000300: 72d0 88bd b7c1 b53b a5b9 81ba 5a10 d83d
00000310: 0f50 ad3d a7e3 9ebc ef80 973d f1bc 80bd
00000320: 5672 0b3e fb4e 8fbd 53e2 02bd 97cb d5bc
00000330: 1994 d13c 6120 16bd 6977 543c 35b6 c13d
00000340: 0f9f 923d f862 a73d f5f8 69bd 828e 00bd
00000350: 5a71 9c3c 46a5 803d bef1 0dbd 3f8d d43d
00000360: 9260 39bd 8317 1dbd 9137 e93d f5c4 723d
00000370: d984 e33c 052e 793c a7f9 30bd 2f56 a93d
00000380: d2f0 c43c 6d96 233c 563d 993d 65fb 8dbc
00000390: 3aff 8cbc 0cae 523d f902 5f3c 6bc8 91bd
000003a0: c9a0 80bd 3e58 50bb dda2 a13d 1000 ad3d
000003b0: 1d5b 743d de02 30bc 6ffb ba3d 4a32 443d
000003c0: 1c90 89bc cfca f3bc ba4f 8a3d 67dd 503d
000003d0: 3313 a83d 845b a33b 10d8 d33d 4101 12bc
000003e0: 853c 82bd a922 093d 2f68 37bc 5e1b 273c
000003f0: 5adc 823c d48c 7f3d ff56 ae3c fee5 5bbd

weight f4 [1, 128]
-0.13134888 -0.045319796 0.11359009 0.050321646 0.061480995 -0.040856257 0.08970292 0.099148735
-0.028128915 -0.10703002 -0.08975193 -0.0946158 0.055357505 0.13491167 -0.08075367 0.025802655
-0.09634794 0.069465384 0.12777902 -0.10160002 0.10444126 -0.11268461 0.027848097 -0.061942477
-0.0962885 0.032877166 -0.06129739 -0.013071658 -0.1315661 -0.048476502 -0.034478024 0.12266803
0.020872775 0.045385692 0.0022824658 0.017476479 0.09947114 0.06762329 0.046882585 0.034192264
0.016050588 -0.073057964 0.06533115 0.044883262 0.12579171 -0.12958647 0.049575716 0.0049076215
0.11536583 0.086656734 0.06732956 0.041062154 0.056415923 0.051494814 -0.039614316 -0.063133694
0.11446809 0.12328972 0.07256319 -0.011013032 0.05796135 -0.11423071 0.064643025 0.123516135
-0.023961088 0.13480663 0.087377064 -0.15350209 -0.07923938 -0.053017445 0.050324943 -0.13958964
0.12723286 0.102456994 0.058282267 -0.087053455 0.05891834 -0.08233416 -0.039909557 0.120597795
-0.085211426 -0.0368825 -0.0758649 0.1128684 0.14137638 0.06155934 -0.05618195 0.030776488
-0.096005894 0.0105712125 -0.13620296 -0.10656225 0.040442627 0.09272169 0.034620322 -0.10899907
0.08825924 0.07732202 -0.031139882 0.07719593 -0.06454416 -0.003756968 0.11762507 -0.02912733
0.04242936 0.080905154 0.046475567 0.039788887 0.0907484 -0.14784712 -0.11275288 -0.093354195
0.054406907 -0.01914416 0.051506765 0.11258876 -0.09004642 -0.10325412 0.052368626 -0.11495995
-0.111792855 0.0009465196 0.117971964 0.10611972 0.10947249 0.038538992 -0.13146625 0.116665415
00000000: 5280 06be 40a1 39bd eca1 e83d 121e 4e3d
00000010: 7fd3 7b3d e458 27bd 2ab6 b73d 7e0e cb3d
00000020: 9c6e e6bc 8e32 dbbd dccf b7bd eec5 c1bd
00000030: 8dbe 623d 4926 0a3e 2e62 a5bd 1760 d33c
00000040: 1252 c5bd de43 8e3d 81d8 023e ac13 d0bd
00000050: 4de5 d53d 30c7 e6bd b121 e43c 65b7 7dbd
00000060: e832 c5bd 35aa 063d f912 7bbd 822a 56bc
00000070: 44b9 06be 4c8f 46bd d438 0dbd 6039 fb3d
00000080: 62fd aa3c 59e6 393d 6c95 153b d52a 8f3c
00000090: 86b7 cb3d 147e 8a3d f407 403d 300d 0c3d
000000a0: 867c 833c 6a9f 95bd 57cc 853d 83d7 373d
000000b0: 8bcf 003e 51b2 04be e80f 4b3d 1dd0 a03b
000000c0: ec44 ec3d 1679 b13d 15e4 893d ca30 283d
000000d0: 6214 673d 3aec 523d 9f42 22bd 3d4c 81bd
000000e0: 3f6e ea3d 527f fc3d 029c 943d 0170 34bc
000000f0: e168 6d3d caf1 e9bd 9063 843d 07f6 fc3d
00000100: 0b4a c4bc c00a 0a3e bff2 b23d a72f 1dbe
00000110: 4248 a2bd d228 59bd 8721 4e3d 96f0 0ebe
00000120: 5549 023e f9d4 d13d 63b9 6e3d 1549 b2bd
00000130: 5b54 713d d09e a8bd 3478 23bd fafb f63d
00000140: 5483 aebd 1b12 17bd 0f5f 9bbd 8c27 e73d
00000150: f8c4 103e a625 7c3d 0b1f 66bd f91e fc3c
00000160: bd9e c4bd e132 2d3c ca78 0bbe 4f3d dabd
00000170: 2ba7 253d dfe4 bd3d 0ace 0d3d e83a dfbd
00000180: 43c1 b43d 025b 9e3d 1119 ffbc e618 9e3d
00000190: bb2f 84bd 7737 76bb 6ae5 f03d 709c eebc
000001a0: 69ca 2d3d 9ab1 a53d 2a5d 3e3d acf9 223d
000001b0: 4cda b93d 3c65 17be fbea e6bd 7c30 bfbd
000001c0: c7d9 5e3d 37d4 9cbc c2f8 523d f094 e63d
000001d0: 426a b8bd e576 d3bd 7c80 563d 1f70 ebbd
000001e0: a7f3 e4bd db1f 783a 499b f13d 4c55 d93d
000001f0: 1d33 e03d 10db 1d3d 179f 06be 47ee ee3d
