wakeword/neuralnet/optimized.pt (torch, 356604 bytes, 7 tensors)

weight f4 [40]
0.9999327 1.0063252 1.0035633 1.0050955 0.99738747 1.0093783 1.0039777 1.0232718
1.0134767 0.99864304 0.98646784 0.99895155 0.9895299 0.9896951 0.99599695 0.9901953
1.0203037 1.011458 0.9802792 1.0062162 1.0133357 1.0175483 1.0086062 1.0235759
1.0375805 1.0034888 0.9932978 1.0072615 1.0125017 0.9995865 0.9922228 1.0086801
1.029897 1.0257874 0.99616563 1.0102422 1.0198857 1.005856 1.0297635 1.0102402
00000000: 97fb 7f3f 44cf 803f c374 803f f8a6 803f
00000010: c954 7f3f 4f33 813f 5782 803f 92fa 823f
00000020: 9bb9 813f 12a7 7f3f 2889 7c3f 4abb 7f3f
00000030: d551 7d3f a85c 7d3f a8f9 7e3f 707d 7d3f
00000040: 5099 823f 7577 813f 94f3 7a3f b1cb 803f
00000050: fcb4 813f 063f 823f 021a 813f 8904 833f
00000060: 70cf 843f 5272 803f c448 7e3f f2ed 803f
00000070: a899 813f e7e4 7f3f 5002 7e3f 6e1c 813f
00000080: aad3 833f 004d 833f b604 7f3f 9e4f 813f
00000090: 9d8b 823f e4bf 803f 4acf 833f 8d4f 813f

bias f4 [40]
-0.011005141 0.008858742 -0.0031054683 -0.015362868 -0.019441795 -0.0071363305 -0.017762111 0.005256061
-0.008435179 -0.0011971005 0.02073141 0.002273841 0.00015673679 0.014384236 0.01784952 0.0027962592
0.005116331 -0.0064557693 0.010290914 0.0045891083 -0.0012346687 0.013288021 0.018100722 0.011070108
0.005721926 0.010253699 0.012193495 -0.001388648 0.010414154 0.014750539 -0.0046966807 0.011073533
-0.0056783697 0.0060225218 8.1968756e-05 0.005320692 0.0013473632 0.017996129 0.018306304 0.014660307
00000000: e84e 34bc 4224 113c 1d85 4bbb 8ab4 7bbc
00000010: 6644 9fbc e1d7 e9bb d981 91bc 093b ac3b
00000020: b433 0abc 07e8 9cba ebd4 a93c b904 153b
00000030: b659 2439 dcab 6b3c 2839 923c 7241 373b
00000040: e5a6 a73b eb8a d3bb 399b 283c 3b60 963b
00000050: 9bd4 a1ba 00b6 593c f747 943c 665f 353c
00000060: ff7e bb3b 21ff 273c 3ac7 473c 4b03 b6ba
00000070: 21a0 2a3c 3fac 713c 9de6 99bb c46d 353c
00000080: 9e11 babb 9358 c53b a4e6 ab38 3359 ae3b
00000090: 029a b03a 9e6c 933c 1af7 953c c931 703c

weight_ih_l0 f4 [512, 40]
0.044592697 -0.03192821 -0.023773054 0.03579435 -0.09087012 0.04997211 -0.019845746 0.062377803
-0.0004041563 -0.0048451293 0.015296077 0.0032289526 0.040016565 -0.04183406 -0.009828486 -0.008125077
0.03170236 -0.0064072986 0.074718915 0.035207137 -0.024415128 -0.037684843 -0.004261316 -0.016781116
0.00012565788 0.006458227 0.047715545 0.0597992 -0.07656258 0.046277575 0.02926877 0.08902108
0.031010982 -0.09794264 -0.07166021 -0.04817472 0.06923166 -0.010429796 0.03063636 -0.02647758
0.08859617 -0.02614426 0.06195672 0.02117287 -0.036484648 0.050997525 -0.056327578 0.016192466
-0.014597366 -0.018132094 -0.08779186 -0.05301796 0.03577273 -0.010977634 0.08667269 0.06653292
-0.030120067 -0.043615047 0.05678505 0.026898343 -0.073716864 0.036681294 0.05075769 0.05387634
-0.088371985 -0.03308521 -0.011082546 -0.011492079 -0.087430015 -0.06899032 0.028093956 -0.048435967
0.048751663 0.028228464 0.035596352 0.040774804 0.056007776 0.044746317 -0.06500745 0.026068605
-0.07062086 -0.053722966 0.0063394243 -0.027477985 0.045940146 -0.0638466 -0.07547508 0.06254067
-0.008353726 0.03952108 0.035471812 -0.05228136 0.013506272 0.026183246 -0.04765927 -0.045133233
0.036688957 0.024152694 -0.031064099 -0.028089024 0.07800693 -0.03217646 0.046296544 0.042379554
-0.065971285 -0.0723469 0.09232984 0.0045790155 0.05940937 0.01328349 0.024801254 0.0573685
0.079974696 -0.05049797 0.0038309414 0.070718974 0.06928876 0.053587403 -0.065216124 -0.049744155
-0.04506904 0.018868916 0.07665344 -0.04797703 0.03849515 -0.038425546 -0.088435374 -0.033609364
0.045339152 0.06629529 -0.0613643 0.012110562 0.0854363 0.06409383 0.049200896 0.06952234
0.035376765 0.040084112 -0.05115257 -0.062744096 -0.04862322 -0.011568563 -0.064343035 0.021424258
0.012443772 -0.022634601 0.028075423 0.015564909 0.043202873 0.056175716 -0.036003884 0.07635864
-0.00075816823 0.012149877 -0.074570045 -0.044582628 -0.04265259 -0.027806839 0.0724733 -0.03434951
-0.068235256 0.04688005 0.026010672 0.036849458 -0.06534851 0.011438164 -0.036286008 -0.023327189
-0.06932431 -0.034551434 -0.030178608 0.035489712 0.009814651 0.029469596 0.09315982 0.09624337
0.07702733 0.017828789 -0.0435582 0.08194372 -0.025916778 -0.010207629 -0.0696742 -0.025388628
-0.07288173 0.081260264 -0.073937535 -0.07110036 -0.0053644576 -0.049211584 0.026022816 -0.0486807
-0.03842029 0.022645118 0.07643289 -0.046845634 0.057061937 0.06817255 0.09743097 -0.0498208
0.026989637 -0.06405331 0.083360374 -0.055317882 0.029728245 -0.0023412046 0.0020059373 -0.013148772
0.040614925 0.026648175 0.012645802 0.023288026 -0.08143123 0.08500771 0.076889895 0.08304428
0.050050635 -0.040400267 -0.013617803 0.08898204 -0.06949109 0.062245887 -0.08601647 -0.077846766
0.01794292 -0.0670416 -0.021148896 0.062420618 0.07846 0.103787705 -0.014945386 -0.08552348
0.08160763 -0.00829878 -0.02749606 0.032627188 -0.053653 0.059945133 0.07494865 -0.067722015
-0.084990166 0.003065867 0.041321013 -0.01898318 -0.058574643 -0.011253817 -0.0879407 -0.057177596
-0.07052555 0.07154408 0.080836274 -0.028164886 -0.0003000495 0.048127722 0.025739286 -0.038538605
00000000: d5a6 363d 28c7 02bd b5bf c2bc 199d 123d
00000010: 1d1a babd 8eaf 4c3d 8c93 a2bc de7f 7f3d
00000020: f1e4 d3b9 e4c3 9ebb 669c 7a3c d69c 533b
00000030: 69e8 233d 315a 2bbd a807 21bc 0b1f 05bc
00000040: 55da 013d 51f4 d1bb 3b06 993d 5c35 103d
00000050: 3c02 c8bc 6c5b 1abd 82a2 8bbb 8d78 89bc
00000060: 08c3 0339 899f d33b 6071 433d 02f0 743d
00000070: d8cc 9cbd 8e8d 3d3d 0fc5 ef3c af50 b63d
00000080: be0a fe3c 2796 c8bd 97c2 92bd db52 45bd
00000090: 54c9 8d3d bce1 2abc 1bf9 fa3c 83e7 d8bc
000000a0: e971 b53d 7d2c d6bc 54c6 7d3d ba72 ad3c
000000b0: ed70 15bd c8e2 503d bfb7 66bd 10a6 843c
000000c0: ca29 6fbc c289 94bc 38cc b3bd 5c29 59bd
000000d0: 6d86 123d 89db 33bc 7481 b13d 6942 883d
000000e0: 5cbe f6bc b1a5 32bd 7197 683d ea59 dc3c
000000f0: def8 96bd 203f 163d 4ce7 4f3d 70ad 5c3d
00000100: 5ffc b4bd 5b84 07bd 9193 35bc 4649 3cbc
00000110: 820e b3bd cc4a 8dbd 4c25 e63c cb64 46bd
00000120: d3af 473d 613f e73c 7bcd 113d 7b03 273d
00000130: 6968 653d ea47 373d a022 85bd d48d d53c
00000140: aba1 90bd 9d0c 5cbd f2ba cf3b 8319 e1bc
00000150: bc2b 3c3d 02c2 82bd ae92 9abd 5315 803d
00000160: 11de 08bc dbe0 213d e44a 113d fb24 56bd
00000170: 6949 5d3c 3f7e d63c 5e36 43bd a0dd 38bd
00000180: 2947 163d dfdb c53c 237a febc f41a e6bc
00000190: 19c2 9f3d 77cb 03bd 72a1 3d3d 2f96 2d3d
000001a0: f41b 87bd 9d2a 94bd 6d17 bd3d 910b 963b
000001b0: 3d57 733d ffa2 593c 002c cb3c 3bfb 6a3d
000001c0: c6c9 a33d f6d6 4ebd 8810 7b3b 1cd5 903d
000001d0: 44e7 8d3d 777e 5b3d 0890 85bd 87c0 4bbd
000001e0: 509a 38bd fc92 9a3c 7bfc 9c3d 9083 44bd
000001f0: 17ad 1d3d 1b64 1dbd 9b1d b5bd f9a9 09bd
00000200: 8cb5 393d d3c5 873d 2259 7bbd 616b 463c
00000210: 3af9 ae3d a043 833d e186 493d bb61 8e3d
00000220: 3ae7 103d 3d2f 243d 5b85 51bd fa7f 80bd
00000230: 2429 47bd 128a 3dbc 48c6 83bd ed81 af3c
00000240: f6e0 4b3c 336c b9bc 6efe e53c f603 7f3c
00000250: 7ff5 303d 8218 663d cf78 13bd eb61 9c3d
00000260: cfbf 46ba 4710 473c 2eb8 98bd 469c 36bd
00000270: 7bb4 2ebd 2bcb e3bc e26c 943d 12b2 0cbd
00000280: edbe 8bbd 4c05 403d 5514 d53c 75ef 163d
00000290: 71d5 85bd 2367 3b3c a3a0 14bd a918 bfbc
000002a0: e7f9 8dbd ce85 0dbd 2139 f7bc a95d 113d
000002b0: a1cd 203c 396a f13c 93ca be3d 3e1b c53d
000002c0: 81c0 9d3d ae0d 923c 156a 32bd 1cd2 a73d
000002d0: 6c4f d4bc e63d 27bc 59b1 8ebd d0fb cfbc
000002e0: 0443 95bd c86b a63d 906c 97bd 119d 91bd
000002f0: 55c8 afbb 1692 49bd cd2d d53c 6a65 47bd
00000300: 985e 1dbd 4182 b93c d988 9c3d 35e1 3fbd
00000310: c7b9 693d 0d9e 8b3d e389 c73d e510 4cbd
00000320: 5f19 dd3c 622e 83bd d8b8 aa3d 0195 62bd
00000330: a688 f33c e56e 19bb 0b76 033b f26d 57bc
00000340: d65b 263d 464d da3c 5730 4f3c 88c6 be3c
00000350: 6bc5 a6bd 8618 ae3d 7378 9d3d 1f13 aa3d
00000360: e501 4d3d c07a 25bd 351d 5fbc 373c b63d
00000370: 5851 8ebd 8bf5 7e3d 6729 b0bd 206e 9fbd
00000380: 08fd 923c 1b4d 89bd 7340 adbc c3ac 7f3d
00000390: a3af a03d a68e d43d 7edd 74bc ef26 afbd
000003a0: e721 a73d 9bf7 07bc 6b3f e1bc 16a4 053d
000003b0: 40c3 5bbd 0789 753d ae7e 993d d7b1 8abd
000003c0: 530f aebd b6ec 483b 3940 293d 9d82 9bbc
000003d0: f7eb 6fbd ee61 38bc 411a b4bd 0e33 6abd
000003e0: b36f 90bd b485 923d 7d8d a53d 0cba e6bc
000003f0: f64f 9db9 9321 453d 32db d23c a8da 1dbd

weight_hh_l0 f4 [512, 128]
-0.07260245 -0.077473715 -0.006768363 0.0048659155 -0.0195935 -0.031942036 -0.06963422 0.049814582
0.079428524 0.07345998 -0.05003807 0.054337934 -0.051502608 0.04624408 0.0093354415 -0.08005938
0.03706012 -0.0062713865 -0.09468126 -0.035884906 -0.01898581 -0.052736335 -0.079905115 0.07263073
0.045105238 -0.059121665 -0.0018827053 -0.07645323 -0.015804954 0.08630846 -0.05415167 0.06594613
-0.0060488298 0.0013572314 0.08755105 0.07308096 0.04049837 0.018390102 0.0018956251 -0.03393108
0.009365686 -0.0044432455 0.02317785 0.08722602 -0.093012296 -0.009357011 -0.1057728 0.0014799829
-0.01274643 -0.05438144 -0.07462989 0.030659987 -0.07480301 0.01882045 0.036223214 -0.01291932
0.0121396845 -0.030445015 -0.035412077 0.063817635 0.06759543 0.09254314 -0.024933483 -0.082691
0.015426993 0.018512998 0.0092530865 0.04688473 -0.028071377 -0.035048064 0.048839618 0.042194895
-0.046895385 -0.063061 0.07830256 0.09986573 -0.020180063 0.038176194 -0.07747444 -0.02201607
-0.07164015 -0.053111557 -0.010105211 0.07869092 -0.02910168 -0.079939485 0.013476661 -0.04062359
-0.027723636 -0.05868693 0.016475825 -0.036179516 -0.05765263 -0.0071865483 -0.058428682 0.023492867
-0.08707907 0.018839566 0.03365542 0.06732135 0.04575235 0.071084596 -0.04646449 0.015940195
-0.06579524 -0.09237565 0.05935793 -0.050283287 -0.0065545156 0.032517493 0.09304597 0.031095847
-0.08466365 0.0012768354 -0.060425166 -0.06695266 -0.041677117 0.06458695 -0.06305837 0.102121174
0.05146501 -0.057317227 -0.10543128 0.032538593 -0.036333043 0.059496604 -0.050602168 0.0017598214
-0.054656636 -0.04988206 -0.027895931 -0.012196859 -0.038751073 -0.02634928 0.07007641 -0.017844869
0.046512634 0.05639221 0.022424903 -0.042407814 0.061725892 0.005323289 0.10096377 0.07357427
0.040235326 0.009215512 0.06652385 0.058963966 0.033719357 0.0805219 0.063534334 -0.02781258
0.02823274 0.06606618 -0.077191316 -0.047696434 0.052270934 -0.04533955 0.007817305 -0.051803622
0.057286534 0.078938074 0.041337736 -0.04249219 0.052423388 -0.026383847 -0.020145038 -0.07409924
-0.013224013 -0.04359556 0.030150022 0.04123597 0.08569617 -0.0033631716 -0.02644988 0.09630559
0.07243816 0.023874518 0.037491415 -0.008785218 -0.070517875 -0.083598755 0.017526507 -0.03500482
-0.007859159 0.037334256 0.007540819 0.045495626 0.07664791 -0.04448641 0.027126715 -0.010441888
-0.056723755 0.055555798 0.053506836 -0.08240992 0.018293677 -0.084624015 0.05079863 0.055270337
0.060248826 0.062353205 -0.028901102 -0.044286914 -0.014873824 0.05365666 -0.06546677 -0.0023410546
-0.011979602 0.026755847 -0.03595741 -0.056128006 0.06929316 -0.013811355 -0.08230221 -0.024621397
-0.015041617 0.034260213 0.0063387696 -0.10068049 0.05541977 0.03713548 -0.003236373 -0.048821565
-0.06784262 0.09233457 0.04063996 0.08199342 -0.0154562285 0.020687567 -0.02149116 -0.015288709
0.075666785 -0.09151534 -0.041366365 0.07272562 -0.07404856 0.044190258 -0.017760592 0.04491436
-0.017367685 0.0017721119 -0.0027066562 0.046233557 0.0035462137 0.033929497 -0.047780782 -0.0458507
-0.107158266 0.01601891 0.009349927 -0.039598525 0.0111866975 -0.0027569667 -0.07029979 0.06548933
00000000: 98b0 94bd 8aaa 9ebd 25c9 ddbb 4272 9f3b
00000010: 8c82 a0bc a7d5 02bd 639c 8ebd 600a 4c3d
00000020: 6cab a23d 3072 963d b8f4 4cbd 7491 5e3d
00000030: 66f4 52bd 6f6a 3d3d aef3 183c 2cf6 a3bd
00000040: 5acc 173d 3480 cdbb 40e8 c1bd 0dfc 12bd
00000050: 2188 9bbc 0e02 58bd 4ba5 a3bd 6cbf 943d
00000060: 45c0 383d 8f29 72bd 1bc5 f6ba 8393 9cbd
00000070: 6479 81bc 7dc2 b03d 24ce 5dbd c40e 873d
00000080: 4335 c6bb 21e5 b13a f74d b33d 78ab 953d
00000090: 9ee1 253d d7a6 963c a076 f83a 51fb 0abd
000000a0: 8972 193c a598 91bb 79df bd3c 8ea3 b23d
000000b0: 3b7d bebd 264e 19bc 699f d8bd fcfb c13a
000000c0: 67d6 50bc 13bf 5ebd 8ed7 98bd a72a fb3c
000000d0: 5232 99bd 582d 9a3c cb5e 143d 8eab 53bc
000000e0: 87e5 463c d367 f9bc 410c 11bd d2b2 823d
000000f0: 796f 8a3d 4287 bd3d 4e41 ccbc e659 a9bd
00000100: 80c1 7c3c 92a8 973c 429a 173c 340a 403d
00000110: f2f5 e5bc 8f8e 0fbd 0d0c 483d 8ed4 2c3d
00000120: 6015 40bd 2026 81bd 185d a03d 6786 cc3d
00000130: a950 a5bc a45e 1c3d ebaa 9ebd 0c5b b4bc
00000140: 12b8 92bd 818b 59bd 5490 25bc b428 a13d
00000150: a566 eebc 50b7 a3bd 37cd 5c3c ec64 26bd
00000160: ae1c e3bc b561 70bd 4ff8 863c f930 14bd
00000170: 2a25 6cbd 237d ebbb ea52 6fbd 1d74 c03c
00000180: 8356 b2bd 6f55 9a3c 44da 093d c7df 893d
00000190: d166 3b3d cd94 913d 8d51 3ebd 0395 823c
000001a0: a8bf 86bd 722f bdbd 4d21 733d d9f5 4dbd
000001b0: 43c7 d6bb 1031 053d e38e be3d b8bc fe3c
000001c0: 2364 adbd 7d5b a73a 6180 77bd 7a1e 89bd
000001d0: a0b5 2abd 2a46 843d bf24 81bd e824 d13d
000001e0: f9cc 523d 78c5 6abd 5bec d7bd 3047 053d
000001f0: f5d1 14bd b6b2 733d 3844 4fbd cfa9 e63a
00000200: a3df 5fbd 2251 4cbd 0286 e4bc 56d5 47bc
00000210: 72b9 1ebd 72da d7bc 3984 8f3d 672f 92bc
00000220: 0884 3e3d 85fb 663d 6eb4 b73c d1b3 2dbd
00000230: 4ad4 7c3d fc6e ae3b 18c6 ce3d 1bae 963d
00000240: cccd 243d a9fc 163c a83d 883d 3384 713d
00000250: 4f1d 0a3d aae8 a43d 4a1e 823d 35d7 e3bc
00000260: 5948 e73c b54d 873d 7b16 9ebd 565d 43bd
00000270: 0c1a 563d f7b5 39bd 2714 003c 0930 54bd
00000280: 49a5 6a3d 49aa a13d c251 293d 4a0c 2ebd
00000290: e8b9 563d f022 d8bc 3507 a5bc 58c1 97bd
000002a0: 88a9 58bc 4291 32bd 2efd f63c 0ce7 283d
000002b0: 7981 af3d a868 5cbb 6bad d8bc dd3b c53d
000002c0: 755a 943d 7e94 c33c 9990 193d e0ef 0fbc
000002d0: ad6b 90bd d335 abbd c093 8f3c 3761 0fbd
000002e0: b4c3 00bc ceeb 183d f918 f73b 9f59 3a3d
000002f0: 94f9 9c3d 6237 36bd d838 de3c 7414 2bbc
00000300: 2b57 68bd 7a8e 633d fc29 5b3d 88c6 a8bd
00000310: 9fdc 953c 5b4f adbd 3912 503d 2663 623d
00000320: 79c7 763d 1366 7f3d 01c2 ecbc 3266 35bd
00000330: 57b1 73bc 16c7 5b3d 7113 86bd 616c 19bb
00000340: 1846 44bc 142f db3c 1448 13bd 7be6 65bd
00000350: 93e9 8d3d 0649 62bc 108e a8bd d0b2 c9bc
00000360: 1d71 76bc 7054 0c3d 74b5 cf3b 9331 cebd
00000370: d7ff 623d 601b 183d 5419 54bb 1ff9 47bd
00000380: 12f1 8abd e819 bd3d 1676 263d 2bec a73d
00000390: 1f3c 7dbc f978 a93c 3b0e b0bc 7e7d 7abc
000003a0: 30f7 9a3d 656c bbbd c76f 29bd 2bf1 943d
000003b0: c5a6 97bd d800 353d a97e 91bc 1ff8 373d
000003c0: ad46 8ebc 3546 e83a 2862 31bb 665f 3d3d
000003d0: 9867 683b a8f9 0a3d c8b5 43bd f2cd 3bbd
000003e0: cb75 dbbd 173a 833c 7030 193c 1032 22bd
000003f0: 6948 373c 3aae 34bb 56f9 8fbd 451f 863d

bias_ih_l0 f4 [512]
0.02782335 0.019529056 -0.029049793 -0.00012438842 -0.06443644 0.01431427 -0.013662088 0.04958196
-0.029673267 0.06397442 0.079000674 -0.03795916 0.055709746 0.04072493 -0.08009068 -0.07082164
-0.06768691 -0.031963896 0.04828234 -0.020969557 -0.0029819347 -0.034326985 0.029622197 0.07496891
-0.022433316 -0.025048848 -0.015686221 0.03205317 -0.038922634 0.0600206 -0.056735035 -0.039600257
0.09623768 0.0048695817 0.032244477 -0.044290546 0.06338306 -0.06750925 0.011023467 0.06870628
0.019976372 0.007669738 -0.015469356 0.055273082 0.07757443 0.02035824 -0.029230826 0.09996365
-0.061002508 -0.062194116 -0.062634535 0.080682315 -0.0013795478 -0.048108872 0.09140693 0.014922246
0.0648519 0.038188092 -0.00636085 0.025511403 -0.026557451 0.044122145 0.08667059 -0.061171647
-0.07076475 0.08617065 -0.03815874 0.014767921 0.09044769 0.04903079 0.06306002 0.05050839
0.044175476 0.052499305 0.035938703 -0.025704393 -0.0005168353 0.05538821 -0.00037548027 0.08901116
-0.005666549 -0.050056737 0.06323137 -0.043094378 0.064038664 0.05643301 0.031046925 -0.06234015
-0.061579105 -0.07430018 0.09138066 0.0058518276 0.019231046 8.0322774e-05 -0.038754787 0.0131931985
-0.026505318 0.026159594 0.018169219 -0.041406788 0.09619983 -0.06855806 0.015616274 0.023531824
0.043504614 0.061983887 0.01918341 0.099296875 0.04904926 0.017760113 -0.07371983 0.032621767
-0.031067703 0.019494211 0.085451104 0.030523049 -0.035623144 0.010128414 -0.03838576 0.0703876
0.060572557 0.01395176 -0.0023644003 0.049164716 0.017068775 -0.036821697 -0.052697655 0.0051241596
0.066600956 0.06464326 -0.0673631 0.025772635 -0.0042564636 0.07588886 -0.0039007678 0.07944819
0.0953421 -0.015655842 -0.026985073 0.10205306 0.065322295 -0.038018055 0.0130934445 0.09103017
-0.057773814 0.10041977 0.070500925 0.08275385 0.07472943 0.020297177 0.07856295 -0.050190046
0.073368184 -0.01508935 -0.046443135 0.07417842 -0.029500961 -0.070874 0.070482194 0.021665307
-0.039790478 -0.012723214 0.07976898 0.08263906 0.091144666 0.0910555 -0.0073816674 0.0050314213
-0.06936139 0.015834138 0.08266545 -0.005966628 -0.016885126 -0.00816956 0.1027108 0.06308829
0.0059077144 -0.037236974 0.04472472 -0.040120307 0.01314953 -0.058943678 0.04951645 0.026218243
0.04420879 0.014172163 0.086212955 0.064646065 0.06555916 0.026266675 -0.0741009 0.08234068
-0.01435024 -0.06117148 0.01631721 0.05796809 -0.021973373 0.036226608 -0.053215366 0.03657875
-0.031037698 0.08759934 -0.07119891 0.0614375 0.02663579 -0.069036126 -0.020889236 0.104405895
0.08392038 -0.023517823 0.0065749004 0.0015734005 0.11185954 0.036922425 0.09932082 -0.03883466
-0.023900991 -0.03698922 0.0005200557 0.03893474 0.038818903 0.030164959 0.033161998 0.017688394
0.062016074 0.018250981 0.04112197 0.09444912 -0.030332977 0.075997636 -0.054416817 0.028558927
-0.033132628 -0.046633504 0.045723964 0.07248452 -0.06918287 0.014114802 0.051678807 0.0057548177
0.023452101 -0.048102073 -0.019586513 -0.05316427 0.0065112067 -0.027445823 0.032981854 0.0814119
-0.026574643 0.057385087 0.08031562 0.061100304 -0.0015329341 -0.00047833502 0.050392188 -0.0020629314
00000000: cbed e33c 66fb 9f3c d5f9 edbc 436e 02b9
00000010: 41f7 83bd 6686 6a3c f3d6 5fbc 7416 4b3d
00000020: 5a15 f3bc 0505 833d 1bcb a13d 107b 1bbd
00000030: e72f 643d 2fcf 263d 9506 a4bd f00a 91bd
00000040: 6f9f 8abd 93ec 02bd b4c3 453d 59c8 abbc
00000050: 906c 43bb 749a 0cbd 40aa f23c 4d89 993d
00000060: 13c6 b7bc 3e33 cdbc 6480 80bc 2f4a 033d
00000070: 576d 1fbd 29d8 753d ff62 68bd e133 22bd
00000080: 4318 c53d 0391 9f3b c912 043d 016a 35bd
00000090: face 813d 4a42 8abd c69b 343c e1b5 8c3d
000000a0: 7da5 a33c 6d52 fb3b 2f73 7dbc 0766 623d
000000b0: 58df 9e3d 53c6 a63c 7c75 efbc beb9 cc3d
000000c0: c4dd 79bd 42bf 7ebd 8946 80bd c53c a53d
000000d0: f1d1 b4ba cf0d 45bd 8e33 bb3d 707c 743c
000000e0: 13d1 843d 1e6b 1c3d ad6e d0bb 4afd d03c
000000f0: 038f d9bc 6cb9 343d 5a80 b13d 1f8f 7abd
00000100: 1ced 90bd 3d7a b03d 574c 1cbd 26f5 713c
00000110: a33c b93d 82d4 483d 9d25 813d e3e1 4e3d
00000120: 58f1 343d 8309 573d 7634 133d 0592 d2bc
00000130: 3b7c 07ba bfde 623d 1cdc c4b9 7c4b b63d
00000140: 75ae b9bb 4b08 4dbd 737f 813d bb83 30bd
00000150: b426 833d 4d26 673d 1f56 fe3c 6358 7fbd
00000160: 5f3a 7cbd b12a 98bd c925 bb3d b0c0 bf3b
00000170: 6d8a 9d3c f672 a838 57bd 1ebd 4928 583c
00000180: ae21 d9bc a54c d63c 9dd7 943c 2a9a 29bd
00000190: 6b04 c53d 2b68 8cbd 67db 7f3c d0c5 c03c
000001a0: e531 323d d1e2 7d3d 8726 9d3c 295c cb3d
000001b0: e0e7 483d a87d 913c 6cfa 96bd 679e 053d
000001c0: b281 febc 53b2 9f3c fd00 af3d 790b fa3c
000001d0: 93e9 11bd a6f1 253c 633a 1dbd 6027 903d
000001e0: ee1a 783d ec95 643c 0ef4 1abb f160 493d
000001f0: d1d3 8b3c 59d2 16bd 7fd9 57bd 91e8 a73b
00000200: 1566 883d af63 843d aaf5 89bd 2221 d33c
00000210: ce79 8bbb 9e6b 9b3d 06a4 7fbb bcb5 a23d
00000220: b842 c33d ae40 80bc cd0f ddbc 3201 d13d
00000230: b2c7 853d d2b8 1bbd e385 563c 076e ba3d
00000240: 3ca4 6cbd e1a8 cd3d ca62 903d da7a a93d
00000250: be0b 993d 4446 a63c 9de5 a03d 1494 4dbd
00000260: 0f42 963d 5239 77bc 283b 3ebd dbea 973d
00000270: 00ac f1bc 6326 91bd f858 903d 717b b13c
00000280: 57fb 22bd 0775 50bc eb5d a33d ab3e a93d
00000290: 0eaa ba3d 4e7b ba3d eae1 f1bb 9fde a43b
000002a0: 580d 8ebd 98b6 813c 814c a93d b483 c3bb
000002b0: ad52 8abc 9ed9 05bc 0a5a d23d 6f34 813d
000002c0: 8095 c13b cc85 18bd 4531 373d 3155 24bd
000002d0: 2071 573c ed6e 71bd c3d1 4a3d a4c7 d63c
000002e0: 4714 353d 5c32 683c 6b90 b03d 2865 843d
000002f0: e243 863d 362d d73c 36c2 97bd 3ba2 a83d
00000300: 451d 6bbc f28e 7abd abab 853c f36f 6d3d
00000310: 8101 b4bc 5a62 143d 5bf8 59bd 99d3 153d
00000320: c542 febc 4867 b33d bcd0 91bd e3a5 7b3d
00000330: 4d33 da3c d062 8dbd e71f abbc c2d2 d53d
00000340: 73de ab3d 73a8 c0bc 4372 d73b 8f3a ce3a
00000350: 9d16 e53d f83b 173d b768 cb3d 1811 1fbd
00000360: 03cc c3bc 0282 17bd 5954 083a 097a 1f3d
00000370: 9200 1f3d 811c f73c e0d4 073d 40e7 903c
00000380: 9104 7e3d 1583 953c 836f 283d 8a6e c13d
00000390: dd7c f8bc a6a4 9b3d 2be4 5ebd 69f4 e93c
000003a0: 14b6 07bd c602 3fbd 0d49 3b3d c472 943d
000003b0: c0af 8dbd c541 673c 28ad 533d e992 bc3b
000003c0: 9f1e c03c ae06 45bd e573 a0bc c7c2 59bd
000003d0: f65b d53b 10d6 e0bc fb17 073d 48bb a63d
000003e0: 11b3 d9bc a00c 6b3d 847c a43d 5044 7a3d
000003f0: bcec c8ba 0ac9 fab9 0a68 4e3d 3f32 07bb

bias_hh_l0 f4 [512]
0.04099449 -0.045073938 0.07380851 0.0023866685 0.09306741 -0.058586407 -0.07268075 -0.044715233
0.08959952 -0.040980745 -0.07056569 -0.02105539 0.07424066 0.064359516 0.06208445 -0.0025700866
0.08429676 0.020361574 -0.02594103 -0.043385737 -0.022261092 0.11033182 -0.07844337 0.076201454
-0.01725763 0.09585457 -0.018568106 -0.02094064 0.060205396 0.07983525 0.08366622 0.03233636
-0.04093686 -0.013041022 0.017296918 0.10619123 -0.06551119 -0.03549449 0.06976561 -0.017257173
-0.02588428 0.027311798 -0.04110932 -0.027013538 0.06583072 -0.05650267 -0.031090034 0.037742697
0.006884477 -0.021582894 0.028695188 0.09392256 -0.040426582 -0.027475541 -0.0046586897 0.04414969
0.05209594 0.10597255 0.021549528 0.038000017 0.055817913 0.050881214 0.09058654 -0.035146452
-0.06664022 -0.03419725 -0.0047200434 -0.062480073 0.06446808 -0.00975075 -0.002119771 -0.026980016
0.022996627 0.03310879 -0.032550395 0.041149326 -0.014082305 0.04247964 -0.04709811 0.09348192
0.101062894 -0.04757581 -0.02979545 -0.030296786 -0.012592777 0.059732053 -0.048928894 -0.03403024
0.07266705 -0.038441394 -0.035883732 0.024564894 -0.06079273 -0.021897065 0.035316054 -0.029618604
-0.058499 0.09516856 -0.036923528 0.075696446 0.06734667 -0.0527297 -0.024502497 0.030999754
0.091978975 0.028631072 0.051806353 -0.0006206217 0.09180948 0.022963477 0.054835744 -0.031924468
-0.0481662 0.02217892 -0.058055934 0.015110511 0.048928414 0.050499804 0.0065816613 0.01833673
-0.041553725 -0.041564196 0.03958739 0.019679284 0.07019968 0.03921526 -0.05876495 -0.035093747
0.046740916 -0.00028566425 0.016090982 -0.0072353 0.027365005 0.085333765 0.06868142 0.041575786
-0.021580063 -0.029947774 -0.026000246 0.073022105 0.06566962 0.11817011 0.062207576 0.0032631634
0.08811276 -0.01181595 0.09634454 0.024528207 0.029720252 0.05406421 -0.014107332 0.066653386
0.08885872 -0.040337123 0.04746041 -0.0032951 0.09735165 -0.030791806 0.080571055 -0.0387759
0.0764062 0.03404683 0.024446705 0.013426978 0.095514774 -0.05976548 0.08512107 -0.04484126
0.047903765 0.018277718 0.022913663 0.06602243 0.07652776 -0.06607927 0.02088082 -0.017775726
0.08507152 0.057921898 -0.029141584 0.085311696 -0.07788095 -0.068130404 0.04539649 0.023273204
-0.07065628 -0.022837503 0.01262414 0.035648394 0.025099708 -0.01922316 -0.056720458 0.011158634
-0.04302771 -0.00078578194 -0.014593368 0.09982135 0.09349742 -0.010328301 0.07331586 -0.062237907
0.09900293 -0.0649345 -0.033632565 -0.01330916 0.048463263 -0.060612082 0.024324762 0.09273923
0.06736273 0.10902405 -0.05879467 -0.027589658 0.026365167 0.05504139 -0.027090633 0.107059225
-0.046557475 -0.032299552 0.08177578 0.057065524 0.03467354 0.010380434 -0.04237182 0.076932125
0.03208732 0.022384576 0.060211148 -0.019513464 -0.029711142 0.07878333 -0.02825454 -0.06717607
-0.057796072 -0.0011985347 0.084187046 0.09455238 0.055098858 -0.05135385 0.098602965 0.031396445
-0.008816428 -0.01769938 0.06966963 0.04954639 0.08314067 0.005534489 0.09145282 0.014575396
-0.052373897 0.043457642 -0.0021440692 -0.004800281 0.025221946 0.055888295 0.0030268296 -0.040472407
00000000: d7e9 273d 739f 38bd eb28 973d a769 1c3b
00000010: 209a be3d 4df8 6fbd a5d9 94bd 5227 37bd
00000020: f47f b73d 6ddb 27bd bf84 90bd 5a7c acbc
00000030: 7d0b 983d ecce 833d 444c 7e3d e66e 28bb
00000040: c8a3 ac3d 51cd a63c 4882 d4bc 3eb5 31bd
00000050: e55c b6bc a6f5 e13d eba6 a0bd 820f 9c3d
00000060: e05f 8dbc 674f c43d 241c 98bc b48b abbc
00000070: ef99 763d aa80 a33d 3259 ab3d 2273 043d
00000080: 69ad 27bd 03aa 55bc 44b2 8d3c ca7a d93d
00000090: bb2a 86bd ac62 11bd 46e1 8e3d ea5e 8dbc
000000a0: 450b d4bc febc df3c 3f62 28bd 7f4b ddbc
000000b0: 42d2 863d 586f 67bd 87b0 febc 1698 1a3d
000000c0: 2e97 e13b 9cce b0bc 2c12 eb3c 795a c03d
000000d0: 5896 25bd 6314 e1bc eca7 98bb 4ed6 343d
000000e0: 8d62 553d 2308 d93d a388 b03c e8a5 1b3d
000000f0: 53a1 643d d268 503d 7085 b93d baf5 0fbd
00000100: ab7a 88bd 6a12 0cbd 98aa 9abb 1beb 7fbd
00000110: d707 843d 9cc1 1fbc dbeb 0abb 3205 ddbc
00000120: 6c63 bc3c 159d 073d 9053 05bd 328c 283d
00000130: 78b9 66bc 22ff 2d3d f3e9 40bd 7373 bf3d
00000140: 10fa ce3d dade 42bd 9615 f4bc f730 f8bc
00000150: ef51 4ebc 99a9 743d aa69 48bd 4b63 0bbd
00000160: 76d2 943d b974 1dbd d2fa 12bd 513c c93c
00000170: cc01 79bd 7961 b3bc 91a7 103d b7a2 f2bc
00000180: a69c 6fbd bce7 c23d 203d 17bd bd06 9b3d
00000190: 0ded 893d 19fb 57bd 76b9 c8bc 32f3 fd3c
000001a0: 795f bc3d b68b ea3c e632 543d 38b1 22ba
000001b0: 9c06 bc3d e71d bc3c 729b 603d 3bc3 02bd
000001c0: ec49 45bd 91b0 b53c 0fcc 6dbd 1492 773c
000001d0: 2969 483d e2d8 4e3d faaa d73b e936 963c
000001e0: 3d34 2abd 383f 2abd 6326 223d 7336 a13c
000001f0: dac4 8f3d 2ea0 203d 84b3 70bd 76be 0fbd
00000200: 6773 3f3d 35c5 95b9 3cd1 833c 1816 edbb
00000210: 932c e03c 78c3 ae3d d8a8 8c3d 5f4b 2a3d
00000220: acc8 b0bc 0955 f5bc 78fe d4bc 9d8c 953d
00000230: cb7d 863d 2c03 f23d 5fcd 7e3d ccda 553b
00000240: 7674 b43d b097 41bc 4950 c53d 61ef c83c
00000250: e377 f33c 6f72 5d3d 7022 67bc 9281 883d
00000260: 90fb b53d 8a38 25bd d965 423d 9bf2 57bb
00000270: 4d60 c73d 193f fcbc 7002 a53d 7ad3 1ebd
00000280: db7a 9c3d b074 0b3d 7544 c83c d4fc 5b3c
00000290: 409d c33d a6cc 74bd f553 ae3d 78ab 37bd
000002a0: bd36 443d 27bb 953c 6fb5 bb3c c536 873d
000002b0: 96ba 9c3d 9154 87bd 410e ab3c 669e 91bc
000002c0: fa39 ae3d 833f 6d3d 55ba eebc e6b7 ae3d
000002d0: 0c80 9fbd f487 8bbd abf1 393d 72a7 be3c
000002e0: 3db4 90bd b715 bbbc 7bd5 4e3c 0d04 123d
000002f0: e79d cd3c e379 9dbc b653 68bd b4d2 363c
00000300: d33d 30bd effc 4dba 0619 6fbc 236f cc3d
00000310: 937b bf3d 0938 29bc a026 963d 2ded 7ebd
00000320: 0cc2 ca3d 61fc 84bd 4dc2 09bd aa0e 5abc
00000330: 6a81 463d 6044 78bd b944 c73c 11ee bd3d
00000340: 79f5 893d 0048 df3d aed2 70bd b503 e2bc
00000350: c3fb d73c 1573 613d 2ded ddbc de41 db3d
00000360: 0db3 3ebd 894c 04bd 0f7a a73d 8abd 693d
00000370: d805 0e3d b212 2a3c 138e 2dbd 978e 9d3d
00000380: fe6d 033d dc5f b73c f79f 763d b3da 9fbc
00000390: c864 f3bc 2859 a13d 1176 e7bc 9b93 89bd
000003a0: 93bb 6cbd 2718 9dba 426a ac3d aea4 c13d
000003b0: 57af 613d 6a58 52bd 5af0 c93d 8f99 003d
000003c0: c772 10bc 4afe 90bc f3ae 8e3d 28f1 4a3d
000003d0: a845 aa3d a95a b53b 9e4b bb3d a4cd 6e3c
000003e0: 0386 56bd a400 323d 8383 0cbb ad4b 9dbb
000003f0: 419e ce3c 20eb 643d c65d 463b 65c6 25bd

weight f4 [1, 128]
-0.16227043 -0.08833398 0.1776801 0.013825657 -0.08294277 0.054105863 0.14354426 0.12974672
-0.093590185 -0.12701713 -0.10420337 -0.1519192 0.12599885 0.19584773 -0.13583416 0.048887998
-0.10178994 0.11963984 0.15445502 -0.16073091 0.15464813 -0.20996806 -0.13997062 -0.053714342
0.031650014 0.06253581 -0.09822389 -0.1939529 -0.1873631 0.07562469 0.09506036 0.17829114
-0.08603961 0.1159451 -0.16127503 -0.12931374 0.13006014 0.1148348 -0.11790112 -0.09761048
0.1502758 0.044973902 0.118813574 0.053646088 0.13236636 -0.17269199 0.11359554 0.10390605
0.16080356 0.13012868 -0.1082637 -0.09082341 0.16201796 -0.09415917 0.09616429 -0.105741456
0.1383654 0.11691257 -0.030794913 0.10887393 0.11471018 -0.13067691 0.12783988 0.10868076
-0.1513603 0.15541396 -0.026192598 -0.18513364 -0.14602704 -0.08166001 -0.041692175 -0.18642476
0.13901861 0.15311229 0.07297455 -0.16808099 0.17947066 0.023297472 -0.10303975 0.15671004
-0.097596616 -0.116554365 -0.12039517 0.15687227 0.16807733 0.009175029 -0.13746746 0.067289166
-0.13114169 0.063734174 -0.16828991 -0.13944615 0.07650408 0.14026734 -0.0700454 -0.13772307
0.12416486 0.10590121 0.12599114 -0.022908013 -0.11333442 -0.0662243 0.1420322 0.1278568
-0.08997069 0.14614409 -0.102106154 -0.04665799 0.12415129 -0.14880736 -0.15685427 -0.14894493
0.10728136 -0.12022544 -0.12144336 0.16729562 -0.15220845 -0.15225399 0.058757644 -0.18075988
-0.16032162 0.1350087 0.16836442 0.15504809 0.14067477 0.05825525 -0.16730654 0.15863577
00000000: 382a 26be 72e8 b4bd c6f1 353e 0285 623c
00000010: e6dd a9bd 1c9e 5d3d 44fd 123e 53dc 043e
00000020: 36ac bfbd c710 02be 9468 d5bd b590 1bbe
00000030: d805 013e 4f8c 483e 1c18 0bbe c83e 483d
00000040: 3e77 d0bd bc05 f53d 7529 1e3e a596 24be
00000050: 145c 1e3e de01 57be 7554 0fbe 9203 5cbd
00000060: 72a3 013d c612 803d 9b29 c9bd 979b 46be
00000070: 1ddc 3fbe 1ee1 9a3d 02af c23d f491 363e
00000080: 8935 b0bd a074 ed3d 4825 25be d26a 04be
00000090: 7c2e 053e 822e eb3d 2476 f1bd 01e8 c7bd
000000a0: e6e1 193e 8e36 383d 8854 f33d 00bc 5b3d
000000b0: 0c8b 073e 2bd6 30be c7a4 e83d b2cc d43d
000000c0: b0a9 243e 7440 053e 5cb9 ddbd a001 babd
000000d0: 09e8 253e 86d6 c0bd c9f1 c43d fa8e d8bd
000000e0: a9af 0d3e dc6f ef3d 9d45 fcbc 4cf9 de3d
000000f0: 2ced ea3d 2bd0 05be 75e8 023e 0594 de3d
00000100: 32fe 1abe d624 1f3e dc91 d6bc ac93 3dbe
00000110: 1d88 15be 5d3d a7bd 6ac5 2abd 22e6 3ebe
00000120: e55a 0e3e 78c9 1c3e ae73 953d 6c1d 2cbe
00000130: 28c7 373e 57da be3c 8106 d3bd 9978 203e
00000140: bce0 c7bd 0eb4 eebd be91 f6bd 20a3 203e
00000150: 771c 2c3e dc52 163c 45c4 0cbe e7ce 893d
00000160: 024a 06be 1087 823d 3154 2cbe f9ca 0ebe
00000170: 2cae 9c3d 3ea2 0f3e f673 8fbd 4707 0dbe
00000180: 254a fe3d bce2 d83d d203 013e 96a9 bbbc
00000190: e01b e8bd 9ba0 87bd e470 113e e5ec 023e
000001a0: 8e42 b8bd cca6 153e 081d d1bd 731c 3fbd
000001b0: 0843 fe3d f560 18be 689e 20be 0585 18be
000001c0: 54b6 db3d c138 f6bd 4cb7 f8bd 8b4f 2b3e
000001d0: 88dc 1bbe 78e8 1bbe dbab 703d 1e19 39be
000001e0: 5a2b 24be b83f 0a3e b967 2c3e edc4 1e3e
000001f0: 0c0d 103e 0f9d 6e3d 6852 2bbe 6a71 223e
